models/ocnn/w_1.npy (npy, 204928 bytes, 1 tensors)

array f4 [256, 200]
00000000: 793a 1f3d 0aa0 00bf 1722 84bd 7524 30be
00000010: a526 3f3e 20a1 0fbe 9738 6a3f 9554 30bc
00000020: b70c abbe 7a4b 003f 73fa aa3d 6b5a 76bf
00000030: bd2e 0abf 3496 983e d43e 92be a15d d2bd
00000040: 4827 243e 960c c43e 6ccb 27bf 9882 933e
00000050: 9de0 973c ec6f d4be 48c7 2fbe f7dd 133f
00000060: f169 053f 93d8 bfbe 9dab afbe ab83 d03e
00000070: 5205 0ebf c53e 073f 0fbf a8be 50dc 843e
00000080: afe0 06bf c442 01bf 0c28 733e 0bc6 4a3f
00000090: 5fc8 77be e3a7 10bf e35e 44bf 4005 283f
000000a0: 9b0d 33bf cdb2 323f b8ab 323f d175 9c3e
000000b0: 16c3 41be 794a 2b3f e4d3 febd d803 f0be
000000c0: 4da6 893e ec84 04bf c474 5cbe f1ca 82bd
000000d0: 4f02 da3e 2934 433f d5b2 473f 23e4 553e
000000e0: 7914 c5be 8906 cabe b931 dd3e 3324 8d3e
000000f0: 04fb 0e3e 4cd7 ab3d a58e 70bf de14 283e
00000100: 5f6a a43e b2f6 073e 7144 c33e c1c7 aa3e
00000110: b1cd 0e3e 9fb7 2abf 9d80 24bf 1450 213d
00000120: cbef 52bf d99d 333f dc26 e13d fb66 003f
00000130: 1289 0fbf 2c44 c03e 8f01 dabc 2efc 02bf
00000140: 06f8 3dbf 895b e43e 3752 4abf 1858 bebd
00000150: 7344 74be b45a 07bf f2ff 94be 0cdf 193e
00000160: f8b2 193f dfc5 613f 8070 623f d34a a0be
00000170: df08 7dbd c2e4 c33e 0bfc 2ebe 3a5f b7be
00000180: 5876 73bf 793b b5be 53e9 3a3f f489 96bd
00000190: 52d9 b63c c9f9 fc3e 665f fdbe f828 33bf
000001a0: 1a90 863d e5f6 b5be 4bf2 733f 5622 133f
000001b0: 68c7 71be 20c2 5d3f 1858 5d3d 2b7b 4a3e
000001c0: 5c80 4f3f 9cde 6bbe a701 7cbf 528f 9ebf
000001d0: 73f2 52bf 70be cfbe a163 80be cae0 eebe
000001e0: e72c 143c 6c49 57be 8aeb a73e 2466 84be
000001f0: ef5d cb3b abde 3c3e 872d 85bf 1ecd a4be
00000200: 9996 90bf dbb9 833e f6f1 a93e 79f5 973f
00000210: 8e4e 19be 3363 37bf f125 c5bd 9f06 af3f
00000220: 3344 f7bd a122 0d3d 6ba0 b63e 40b0 243f
00000230: 1917 ce3e 21a1 df3e b1d2 99bd dc97 2bbd
00000240: 02cf b9bc b74e 3b3e 742f 9abe e269 15be
00000250: 8a8f 153f 2e51 f33e 4969 36bf 9bb6 eabe
00000260: f429 93bf d0e0 2bbe da31 ff3e f1ef d8be
00000270: 33a1 563e 4566 163f 9de6 5bbd 2a89 623d
00000280: 2f4e 41bf f97a 223f 90f1 683e 67f7 9fbe
00000290: 79df 60bf eb2e 213f 93ff 72be b59e 30bf
000002a0: 24d8 d3be e2d6 823e 1353 e33e a01b 053f
000002b0: 2716 02bf b50d ab3e 6206 073f 5bf7 6bbe
000002c0: dd75 81be f82e aa3e 9e7d 8ebe 3e18 b4be
000002d0: 5603 39be 5983 c3bf 3c1a b33e 6473 8e3e
000002e0: a20d 533f 9275 fcbd cd16 ac3e 47db c93c
000002f0: 9ee4 26bf 4976 d93d 0a16 81bb 258f 79bf
00000300: 587b 94bb aac4 6c3f 6322 8f3d 53f7 11be
00000310: ce2d 9cbe 2c1c 15be 5041 69bc 34bb 453f
00000320: 31e8 153f e73e 7dbc 52fb 7b3e 89c2 d4bd
00000330: 8afb 833e 6254 423e c230 083e 217e 95be
00000340: 2868 4a3f e830 dd3d 8756 e8be 7717 cfbe
00000350: 330c e53c 6ce6 23bf 7566 453f a119 05be
00000360: bebd ce3d 88a2 ef3e 74ae 38be a08f a93f
00000370: e90f ffbe 5963 a2bd 4d68 d63e 6594 2fbf
00000380: 7035 bd3e acb0 40bf a5d9 053e 2cc5 1bbf
00000390: 6ab6 1a3f ba4d 8a3e 19fa dbbe 66ee bebe
000003a0: 075b b83e d8dd 02be 8494 313f ef11 0f3e
000003b0: 08fa 9cbc f177 b53e 556d ef3d 1af5 003f
000003c0: c106 49bf f609 023d 613b 19bf ab02 85bd
000003d0: 6569 2abe 62cf 07bf ab55 993d 8842 cb3e
000003e0: e5a7 0fbe a935 a0be 75e5 56bf 244c db3e
000003f0: 298c a2be 0aab e3be 2648 143e 9010 1d3f
0.038874123 -0.502442 -0.064518146 -0.17201407 0.18667085 -0.14026308 0.914926 -0.010762353
-0.33408138 0.5011517 0.08348551 -0.96231717 -0.53977567 0.29802096 -0.2856356 -0.102717645
0.1603061 0.38290852 -0.6554477 0.28810573 0.018539721 -0.4149164 -0.17165864 0.57760566
0.5211478 -0.3746992 -0.34310618 0.40725455 -0.5547687 0.52830154 -0.32958266 0.25949335
-0.5268659 -0.504925 0.23745745 0.7920844 -0.2419753 -0.56506175 -0.76707286 0.6563301
-0.69942635 0.6980408 0.6979327 0.30558637 -0.18922076 0.6691051 -0.12442759 -0.46877933
0.2688469 -0.5176532 -0.21528918 -0.06386364 0.42579886 0.76251465 0.7800725 0.20887809
-0.38492182 -0.3945811 0.43201998 0.2756668 0.13962942 0.08390674 -0.9396766 0.1641421
0.32112405 0.132777 0.38138154 0.33355525 0.13945653 -0.66686434 -0.6425875 0.03938301
-0.82397145 0.7016273 0.1099374 0.50157136 -0.5606853 0.3755201 -0.026612071 -0.51166046
-0.7420658 0.44601086 -0.790317 -0.09294146 -0.23854236 -0.52872777 -0.2910152 0.15026492
0.6003871 0.8819255 0.8845291 -0.31307086 -0.06177604 0.38260466 -0.17088334 -0.3581484
-0.95102453 -0.35396937 0.73012275 -0.07350531 0.022320423 0.4940932 -0.49486846 -0.6998439
0.06570454 -0.35539928 0.95291585 0.5747427 -0.23611224 0.86624336 0.05403909 0.19773547
0.81055236 -0.23034137 -0.9844002 -1.2387488 -0.824012 -0.4057498 -0.2507601 -0.46655875
0.009043909 -0.21024102 0.3279689 -0.25859177 0.006206266 0.18444316 -1.0404519 -0.32187742
-1.1295959 0.25727734 0.33192414 1.1871787 -0.14971372 -0.7163574 -0.096263774 1.3673896
-0.12073555 0.034456853 0.35669264 0.64331436 0.40251997 0.4367762 -0.07510889 -0.04189287
-0.022681717 0.18291746 -0.3011433 -0.14591172 0.5842215 0.47522873 -0.712544 -0.45842442
-1.1497178 -0.16784978 0.4984272 -0.4237056 0.2095993 0.587498 -0.053686727 0.05530659
-0.75509924 0.6346889 0.22748399 -0.3124344 -0.8784099 0.62962216 -0.23730306 -0.6899217
-0.4137584 0.25554568 0.44399318 0.5199528 -0.5081505 0.33408895 0.52744114 -0.23043577
-0.25285235 0.3323896 -0.27830213 -0.35174745 -0.18067679 -1.5274459 0.34980953 0.2782241
0.8244268 -0.12327112 0.33611146 0.024640692 -0.6519259 0.10618264 -0.003939395 -0.97484046
-0.0045313053 0.92487586 0.069889806 -0.14254503 -0.30503696 -0.14561528 -0.014236763 0.77238774
0.5855742 -0.015456892 0.2460759 -0.10388667 0.25777847 0.18977502 0.1329985 -0.2919779
0.7906518 0.10800344 -0.45378515 -0.4044759 0.027959919 -0.6402347 0.7710946 -0.12998058
0.10094784 0.4680369 -0.18035299 1.3246956 -0.49816826 -0.07929105 0.4187645 -0.6858581
0.36954832 -0.7526958 0.13071306 -0.60847735 0.6043459 0.27012426 -0.42964247 -0.3729126
0.36006948 -0.12779939 0.6936724 0.13971685 -0.019162193 0.3544307 0.11690775 0.50373995
-0.7852593 0.03174778 -0.5985623 -0.064946495 -0.16641767 -0.53050816 0.07487043 0.39699197
-0.1402889 -0.3129094 -0.83943874 0.42831528 -0.3174756 -0.4446643 0.14480647 0.613534
