models/ocnn/w_1.npy (npy, 204928 bytes, 1 tensors)

array f4 [256, 200]
00000000: efec 8e3d f4f8 6a3f cd07 0bbe b2de 80be
00000010: de81 d1be dcba cc3e 1e33 fabe ba3c 80bd
00000020: 93c0 53bc 7709 70be 4c04 423e 19d3 f8be
00000030: 718e e13e 51af 933f da6a 903e f3e3 943e
00000040: a851 c4be 72d5 9d3e 8dbb 023f d1e5 6f3d
00000050: 379c 963e 13c5 23bf bb32 283f 106e 373f
00000060: 708d 983e 3cdb aabe 825a 973d 4d2f 8f3e
00000070: 0ec4 883f 35c1 563e 5d3d f5bd 777a 863f
00000080: b659 60be 2dd0 b4bb 4a20 35be 1bfb 4dbf
00000090: b31f 00bf 0ba3 d73d f46d c03e 1a75 81bd
000000a0: c9f1 01bf f53f febd 5b1b fb3d 986a 2bbe
000000b0: 8cb1 603f bbb8 a0bf 8d19 463d 7662 8b3e
000000c0: 98a3 393f 0feb ac3e f7aa 0f3e 6c7e 0ebd
000000d0: 7ec0 99be e2c8 8f3d 87dd 14bd 7b3e 1cbe
000000e0: 5d91 3b3e 4a85 043f 0f2a 0ebf 91c3 5d3f
000000f0: 885e 0fbe 5ee4 e93d c0c5 78bf c596 9ebe
00000100: e6ea 943f 8b5a df3e 8aab 36be fc45 e33d
00000110: 965f 253e 1680 423f 755d 833f c7c9 20bf
00000120: 7c2f c0be 712d f2be 04c2 77bf 0217 49bf
00000130: 08db 993e 5368 27bc 3ad4 703e a717 29bc
00000140: 8b93 4bbf da69 c2bd 0dba 13bf 9730 cfbb
00000150: 4fd3 a2bd eade 15bf cad5 61bf 0e1e 97bc
00000160: 71eb b93d 85fc b53e 83b1 30be 0286 efbe
00000170: 60fc 483e 14d2 8cbc 223a 45bf 9552 b03e
00000180: bd2c 09bf b100 8dbf 0291 9ebe adc0 ac3e
00000190: 99d1 d9be 0331 f93e ea17 543d 8e89 f13e
000001a0: 1276 c73d 1f25 0b3e bd1a b23e 9aa2 8a3f
000001b0: 302b 82bf 6d91 a73e 01e0 183d abee 3b3f
000001c0: 36fb 5abc d155 bd3e ce30 94be d496 05be
000001d0: 3830 9d3e 7e5b d0bd 7ff9 4c3d 83aa 69be
000001e0: b9fe adbe 03f4 87be 93e5 78bf 379f 87bd
000001f0: 3baa 90be 6417 7e3f 5cbd 363f 2cc2 cfbe
00000200: c21e f1be 6abc 363f 75fc 713f 9d9b e7be
00000210: 9760 e13e b9c1 1dbd 8bd5 c43e 55b9 e6be
00000220: 8b8b d33f 7d3c 37bf dd97 a23f 0c95 05bf
00000230: ef25 5bbf 3ad6 e73e 7a71 833e 7c28 04be
00000240: 132d fc3e 0af1 8f3b 3dc1 9fbf ba03 d6be
00000250: 5c66 b9be 16df 28bf 9296 0cbf 798b 943e
00000260: b710 5cbe 054a 39be 20c8 6f3e 7960 73bd
00000270: 0b9e ff3e 859e 8a3d 9509 aebd de72 a8be
00000280: 94fa 3b3e d885 183f caca 5c3d ed81 023f
00000290: f350 a9bf 584e 333f 606d 60bc 2167 f33c
000002a0: f1c0 a43d 5fd4 f13e 3f28 b6be af33 093f
000002b0: fb34 8bbe d701 75be a30f 1abe 0f0f 103c
000002c0: f02e e93d 4f17 693e 2206 753e 1084 e23e
000002d0: af35 5bbd cadc 4d3f ee40 29bf 77ae 2d3d
000002e0: 7e4f 1e3f d0e3 2bbf 3892 c73e 7d07 6bbe
000002f0: 88d5 ab3e 354f 37bf 260c 05be ceb9 05be
00000300: 939b 0fbf e525 95be b387 2dbf c09d b2be
00000310: 519c 24bf 5fc6 4b3e 8ed6 843e 2e36 823e
00000320: 9912 a3bc 7782 703e eee6 243e 4e4b 13bf
00000330: 2948 363f 9fa5 4e3e 148f 473f 23af 383f
00000340: ae48 9ebe 0fc1 033e 0311 bd3e b1f7 c1bd
00000350: 155c 0bbf a9a6 9a3e 0d3c d63e 82ed 2fbf
00000360: dd28 8dbe 4cee f1be f2a6 f23e b6d8 d5be
00000370: 9653 da3e 0347 30bf 966f 323f e9cf 33bf
00000380: aa94 ae3d 4443 d0bb f3c7 083e ddc5 0b3e
00000390: c693 57be 288c d13e 0480 41be 6358 2dbf
000003a0: d73b 0fbe 681d c4bd b49b ec3e 59c7 dcbe
000003b0: 3e1d 693f eaf6 17bf 8d76 eabd 6ea0 cfbe
000003c0: b5e8 d73e 4ad9 abbe d6c7 2b3f 93b5 cf3e
000003d0: 9f1a 8f3e 7fb0 ce3e 57a5 d1bc c9ed 39bf
000003e0: 25b5 ab3e 7449 e4bc 4f8a 6c3e b159 73bd
000003f0: 302d 07bf 0a0e 9b3f 48fb 423e a1cf 49be
0.06978785 0.9178612 -0.13577195 -0.25169903 -0.40919393 0.39986312 -0.48867124 -0.06261583
-0.012924331 -0.2344111 0.18946952 -0.48598555 0.44053987 1.1537877 0.2820652 0.2908016
-0.3834355 0.30826908 0.5106743 0.05856878 0.29416057 -0.63972586 0.6570241 0.7165232
0.29795408 -0.33370388 0.0739031 0.27965775 1.0684831 0.2097214 -0.11974595 1.0506123
-0.21909222 -0.0055179805 -0.17688099 -0.8046128 -0.5004837 0.10529145 0.37583888 -0.063211635
-0.5075956 -0.124145426 0.12261077 -0.16739881 0.87770915 -1.2556375 0.04836421 0.27223557
0.7251525 0.33773085 0.14030062 -0.034788534 -0.30029672 0.07020737 -0.036344077 -0.1525821
0.1831717 0.5176588 -0.55532926 0.86626536 -0.14000905 0.11420511 -0.9717674 -0.30974403
1.1634185 0.43623766 -0.17838874 0.11097333 0.16149744 0.75976694 1.0262896 -0.6280789
-0.37536228 -0.47300294 -0.9678042 -0.7855073 0.3004992 -0.010217744 0.23518458 -0.010320581
-0.7952201 -0.09492846 -0.57705766 -0.006322931 -0.0795046 -0.58543265 -0.8821684 -0.018446948
0.0907811 0.3554422 -0.17255215 -0.46781927 0.19627523 -0.017190017 -0.7704183 0.34438005
-0.5358389 -1.1015836 -0.30970007 0.3374075 -0.42542723 0.48670205 0.05178062 0.47175258
0.09739317 0.1358838 0.34786025 1.0830872 -1.016943 0.3272814 0.037323 0.73411053
-0.013365557 0.36979535 -0.28943485 -0.13045818 0.3070085 -0.10173701 0.050042626 -0.22818951
-0.339834 -0.26553354 -0.972253 -0.06622165 -0.28254876 0.9925444 0.7138269 -0.4057783
-0.4709378 0.7138125 0.94525844 -0.4523591 0.44019005 -0.038514826 0.3844417 -0.45063272
1.652696 -0.7157667 1.2702595 -0.5218055 -0.8560476 0.4528063 0.25672513 -0.12906069
0.4925314 0.004392748 -1.2480847 -0.41799718 -0.36210907 -0.659654 -0.5491725 0.2901266
-0.21490751 -0.18094642 0.23416185 -0.059418175 0.49925265 0.067685165 -0.084979214 -0.32900137
0.18357307 0.5957923 0.053904332 0.509795 -1.3227829 0.7004142 -0.013697952 0.029712262
0.08044613 0.4723234 -0.3557758 0.5359449 -0.27188858 -0.23926483 -0.15045027 0.008792653
0.11385906 0.22762798 0.2392812 0.4424138 -0.053517994 0.8041502 -0.661147 0.04240271
0.61840045 -0.6714449 0.38978744 -0.22952075 0.3356135 -0.71605235 -0.12992916 -0.1305916
-0.5609676 -0.29130474 -0.67785186 -0.3488598 -0.6430102 0.19899891 0.25944942 0.2543196
-0.019906329 0.23487268 0.16103718 -0.5753678 0.7120386 0.20180367 0.77952695 0.7214224
-0.30914825 0.12866615 0.3692704 -0.094710715 -0.5443738 0.30205277 0.4184269 -0.68721783
-0.2757024 -0.4725212 0.47392994 -0.417669 0.42641896 -0.68858355 0.69701517 -0.7023912
0.08524449 -0.006355675 0.13357525 0.13649698 -0.21052465 0.40927243 -0.1889649 -0.6771299
-0.13987671 -0.09575921 0.46212542 -0.4312084 0.91060245 -0.59361136 -0.11448393 -0.40552086
0.4216973 -0.33564216 0.671018 0.40568218 0.27949998 0.4036903 -0.025591535 -0.72628456
0.3353664 -0.027867056 0.23099636 -0.05941171 -0.52803326 1.2113659 0.19041169 -0.1970811
